Lab3_1/Deploy_Model/static/model/model.tflite (tflite, 408864 bytes, 4 tensors)

sequential/dense/BiasAdd/ReadVariableOp f4 [128]
-0.0071534268 -0.0059137074 -0.012224935 -0.0075118956 0.019192385 -0.0077475607 -0.008171505 0.022391304
-0.013034199 -0.03081082 -0.0076871547 -0.008270315 -0.002573911 -0.0047010086 0.003173195 -0.010339363
-0.012822873 -0.019542204 -0.008036853 -0.002473954 -0.018649768 -0.010552996 0.007452776 -0.0045298184
-0.006357959 0.009819895 -0.016464567 -0.00030585765 -0.009932193 0.018147606 -0.009764521 0.032749053
-0.0056436127 0.026507989 0.0012340797 -0.0077937185 0.007350301 0.013611109 -0.008144576 0.0116776945
0.023671921 -0.009187285 -0.0082681 -0.0027443254 0.009624237 0.00082322746 0.016704375 0.01450919
-0.0072585577 -0.00920559 -0.0051157596 -0.018207574 0.0017040577 -0.015086247 -0.013996536 0.042069178
0.0057351347 -0.0058465223 0.0120336125 -0.018121116 0.0036449954 0.029341377 -0.002658568 -0.007734133
-0.0003277706 -0.005085263 -0.013093155 0.030587977 -0.011015355 -0.0031046167 0.011282972 0.02751149
-0.006005188 0.014923729 -0.012684045 0.0039489307 -0.008114095 -0.0073556397 -0.022767967 -0.0074123484
-0.004599416 -0.017294701 0.009313169 -0.018475749 0.0004808255 0.014470614 -0.008310897 -0.009325969
-0.018648928 -0.00627937 -0.008733692 -0.012947896 -0.0044820886 -0.00644875 0.008288272 -0.007213644
-0.0060026585 -0.002093981 -0.004679478 -0.0104594305 0.009710897 -0.007200058 -0.00606986 -0.003994607
-0.006173791 0.025140565 0.00026052532 0.008027301 -0.01226871 0.0041071293 -0.0028860674 -0.01585245
0.020815525 -0.007944253 0.008911611 0.0069622 -0.0019614138 0.011410147 0.005812499 -0.009224498
0.0051175277 -0.0051094526 -0.011666504 0.004050853 0.028503958 -0.0011794845 -0.0029615483 -0.0067402045
00000000: 4b67 eabb c6c7 c1bb 184b 48bc 5926 f6bb
00000010: 5939 9d3c 40df fdbb c7e1 05bc f86d b73c
00000020: 658d 55bc f966 fcbc 87e4 fbbb 3780 07bc
00000030: 10af 28bb eb0a 9abb 61f5 4f3b 6e66 29bc
00000040: 0717 52bc f916 a0bc 01ad 03bc 1022 22bb
00000050: 66c7 98bc 79e6 2cbc 6b36 f43b df6e 94bb
00000060: 6d56 d0bb a0e3 203c b3e0 86bc 855b a0b9
00000070: a3ba 22bc 4aaa 943c 5ffb 1fbc df23 063d
00000080: 0eee b8bb 4827 d93c d8c0 a13a 7362 ffbb
00000090: cbda f03b 2101 5f3c d470 05bc cd53 3f3c
000000a0: 9eeb c13c 4486 16bc ed76 07bc 24da 33bb
000000b0: faae 1d3c dccd 573a 9dd7 883c f4b7 6d3c
000000c0: 32d9 edbb 0bd3 16bc 1aa2 a7bb 0d28 95bc
000000d0: b05a df3a 4e2c 77bc ba51 65bc bb50 2c3d
000000e0: cced bb3b 2f94 bfbb a128 453c bc72 94bc
000000f0: e0e0 6e3b 545d f03c 5f3b 2ebb 9c6e fdbb
00000100: a0d8 abb9 47a2 a6bb ac84 56bc a393 fa3c
00000110: bf79 34bc d376 4bbb 37dc 383c c75f e13c
00000120: 2bc7 c4bb a882 743c bed0 4fbc 0866 813b
00000130: fbf0 04bc 9407 f1bb e383 babc 49e3 f2bb
00000140: b3b6 96bb 9ead 8dbc 4396 183c 745a 97bc
00000150: 4e17 fc39 2716 6d3c 6e2a 08bc f3cb 18bc
00000160: a3c5 98bc 2cc3 cdbb c217 0fbc 6923 54bc
00000170: 7cde 92bb 0950 d3bb 88cb 073c 6f60 ecbb
00000180: f3b1 c4bb 2c3b 09bb 4e56 99bb 085e 2bbc
00000190: 741a 1f3c 77ee ebbb ade5 c6bb 31e5 82bb
000001a0: 834d cabb 96f3 cd3c 1e97 8839 f184 033c
000001b0: b302 49bc 1995 863b 2d24 3dbb ffdc 81bc
000001c0: 5285 aa3c 9d28 02bc 0102 123c 2b23 e43b
000001d0: 108b 00bb a0f1 3a3c c776 be3b 5922 17bc
000001e0: efb0 a73b 326d a7bb dd24 3fbc 05bd 843b
000001f0: 2281 e93c ef98 9aba 8916 42bb efdc dcbb

sequential/dense_1/BiasAdd/ReadVariableOp f4 [10]
-0.0044917925 -0.026796559 -0.015361079 -0.0055634677 -0.01516712 0.00065228564 -0.04324104 -0.012752966
-0.023462955 -0.015812252
00000000: e32f 93bb 7584 dbbc 09ad 7bbc c04d b6bb
00000010: 837f 78bc 26fe 2a3a 841d 31bd d1f1 50bc
00000020: 6235 c0bc b288 81bc

sequential/dense/MatMul f4 [128, 784]
0.0459776 0.059562795 -0.0067985263 0.023659827 0.054426294 0.029843187 0.012852838 -0.031079754
-0.08213914 0.016183151 -0.06112758 0.021864222 -0.06108364 -0.084565796 -0.07471514 0.010388102
0.03951425 -0.08368935 0.057294693 -0.05493169 -0.03858109 0.0071872333 -0.06721525 -0.057150215
0.021231351 -0.06632803 0.047573663 -0.02210882 -0.015366659 -0.021015286 -0.008812429 0.027285507
-0.034344543 0.009463689 -0.045136888 -0.025348462 0.04539524 0.030342136 -0.06678264 -0.082201585
0.02022303 -0.039829522 -0.074067466 0.07258049 0.030376183 -0.020849383 0.016765453 0.025720475
-0.08704589 0.030028518 0.0045682006 0.05233899 0.023252444 0.053127907 -0.0015387066 0.01921112
-0.019957379 -0.046104997 0.030817505 -0.035770524 0.06911455 -0.050284855 0.030535597 -0.015838739
0.07554016 -0.021349888 0.009201913 0.07415586 0.056265306 -0.002919483 -0.079996675 -0.013469898
-0.049849503 -0.041272424 0.023217568 -0.055205926 0.011334151 0.053832494 -0.035423856 0.056603264
0.0634222 0.048366923 -0.024007073 0.03484912 0.07604258 -0.06879202 0.022495426 -0.013419291
0.059357334 0.06614161 -0.022803854 -0.05868034 -0.03296429 0.07902424 -0.014987098 0.01861441
0.0654687 -0.056390528 0.06881815 0.024161974 0.066125356 -0.021051468 0.060130812 0.0065498673
0.0078802705 -0.07749069 0.06075683 -0.039930414 0.011209741 -0.0882976 -0.0030703607 -0.06535652
0.064893626 0.0022934393 0.048204087 -0.07234378 -0.050974682 -0.066526 -0.018105695 0.033093244
0.04957879 0.017661944 -0.010748266 -0.015517182 0.056022484 0.07109456 0.0011064116 0.048114058
0.062037278 0.06358912 -0.045469396 0.053087834 -0.046788286 0.0463907 -0.01581377 -0.050223146
-0.059377838 -0.08406064 -0.04353303 -0.05569405 -0.04041494 -0.06624828 0.041189067 0.05496128
-0.08299205 -0.0009017505 0.06447572 0.04180841 0.057242606 -0.06453829 0.07296768 -0.047922395
0.07934843 0.028094392 -0.06788065 0.045891743 -0.039348997 0.05426325 0.05895033 -0.0045451205
0.06498911 0.024168335 -0.026764778 0.022491004 0.007636002 -0.024194915 -0.047304355 -0.037599485
-0.031160358 -0.04694751 -0.0012044281 -0.005833319 0.06270576 -0.087495975 -0.07706456 0.07604715
0.009742691 0.052805617 0.050429568 -0.010265492 -0.034887854 -0.029862136 -0.02095065 -0.032571822
0.02373728 -0.046210546 0.036414612 0.05393711 0.0072209626 -0.005723436 -0.08018406 0.001599735
0.02860683 -0.07584425 0.02597246 0.057982676 0.0066135884 -0.07380123 0.020197622 -0.019478895
-0.05576975 -0.054506697 0.051831767 0.04670311 0.06642649 0.07253004 0.0116215 -0.0651768
-0.04454711 -0.069255374 0.060669895 -0.04795649 -0.010353163 0.01218053 0.02526099 -0.006246759
-0.0073484643 -0.030557035 -0.001723258 0.05973081 -0.05878644 0.05164905 -0.058391966 -0.018890377
0.030035712 -0.064968646 -0.00035622978 0.06048826 0.042268854 0.07067079 0.071814165 0.07282883
-0.06510042 0.04157205 0.0778321 0.02371378 -0.036466315 -0.071136974 0.026491122 -0.07195535
0.0052893097 0.0027158319 -0.011190955 0.07239601 -0.063341185 -0.08086921 -0.054944623 -0.0124874
-0.00039774232 -0.05010205 0.06796937 0.025051843 0.041788306 -0.033628307 -0.06180799 0.060259067
00000000: 0253 3c3d 1ef8 733d 2cc6 debb 41d2 c13c
00000010: 1bee 5e3d b379 f43c b694 523c f89a febc
00000020: 9138 a8bd 8792 843c ea60 7abd 991c b33c
00000030: d732 7abd d530 adbd 4004 99bd dc32 2a3c
00000040: b2d9 213d 5265 abbd d7ad 6a3d 0d00 61bd
00000050: 3407 1ebd e282 eb3b 26a8 89bd 5816 6abd
00000060: 5fed ad3c fdd6 87bd 9adc 423d 8e1d b5bc
00000070: 70c4 7bbc 4028 acbc 0262 10bc db85 df3c
00000080: ddac 0cbd 970d 1b3c 75e1 38bd 94a7 cfbc
00000090: 5cf0 393d 1290 f83c 56c5 88bd 4e59 a8bd
000000a0: c5aa a53c 4824 23bd afb0 97bd 14a5 943d
000000b0: 79d7 f83c 53cc aabc b457 893c bfb3 d23c
000000c0: 1e45 b2bd 5efe f53c d8b0 953b 6961 563d
000000d0: e97b be3c a69c 593d 6dae c9ba a460 9d3c
000000e0: a87d a3bc 98d8 3cbd fe74 fc3c 1d84 12bd
000000f0: ee8b 8d3d 7ef7 4dbd ca25 fa3c 3ec0 81bc
00000100: cdb4 9a3d f6e5 aebc 9fc3 163c 07df 973d
00000110: 7376 663d cc54 3fbb 4cd5 a3bd d9b0 5cbc
00000120: fe2e 4cbd 460d 29bd c532 be3c 9c1f 62bd
00000130: e0b2 393c 767f 5c3d 9b18 11bd d3d8 673d
00000140: 80e3 813d 651c 463d 7baa c4bc f3bd 0e3d
00000150: 36bc 9b3d d5e2 8cbd 5448 b83c 96dc 5bbc
00000160: ad20 733d 4175 873d 26cf babc cc5a 70bd
00000170: 9005 07bd 76d7 a13d 728c 75bc 3f7d 983c
00000180: 7414 863d c1f9 66bd 88f0 8c3d 55ef c53c
00000190: bb6c 873d 2174 acbc ba4b 763d 45a0 d63b
000001a0: 401c 013c 70b3 9ebd 27dc 783d 138e 23bd
000001b0: 10a9 373c 5fd5 b4bd 1b38 49bb a4d9 85bd
000001c0: f3e6 843d 874d 163b a671 453d fa28 94bd
000001d0: d4ca 50bd c93e 88bd 6552 94bc c88c 073d
000001e0: 2113 4b3d c8af 903c 7f19 30bc c73b 7ebc
000001f0: d577 653d 069a 913d 0305 913a 3f13 453d
00000200: cd1a 7e3d 033b 823d 1e3e 3abd a172 593d
00000210: 13a5 3fbd 2d04 3e3d e18b 81bc c9b6 4dbd
00000220: 2d36 73bd fc27 acbd b14f 32bd 721f 64bd
00000230: 238a 25bd 2ead 87bd deb5 283d 141f 613d
00000240: bcf7 a9bd 7463 6cba d90b 843d 4c3f 2b3d
00000250: 3977 6a3d a72c 84bd 1470 953d 464a 44bd
00000260: 6e81 a23d 3626 e63c 0305 8bbd fbf8 3b3d
00000270: 6a2c 21bd 2443 5e3d e775 713d 3cef 94bb
00000280: 0319 853d acfc c53c cf41 dbbc 0e3f b83c
00000290: 6d37 fa3b 6a34 c6bc 36c2 41bd eb01 1abd
000002a0: 0244 ffbc 084c 40bd e7dd 9dba 6d25 bfbb
000002b0: e16b 803d 1731 b3bd 06d4 9dbd 9cbe 9b3d
000002c0: cf9f 1f3c b44a 583d 3c8f 4e3d 9830 28bc
000002d0: 91e6 0ebd 70a1 f4bc b3a0 abbc 086a 05bd
000002e0: af74 c23c 4547 3dbd 7d27 153d 29ed 5c3d
000002f0: d39d ec3b a98b bbbb 8a37 a4bd 33ae d13a
00000300: df58 ea3c 3b54 9bbd 32c4 d43c 3e7f 6d3d
00000310: cdb6 d83b 1925 97bd 7c75 a53c 3492 9fbc
00000320: d26e 64bd 6a42 5fbd 8c4d 543d c34b 3f3d
00000330: 9d0a 883d a18a 943d 1b68 3e3c 6a7b 85bd
00000340: 0877 36bd c3d5 8dbd ff80 783d 066e 44bd
00000350: 50a0 29bc d890 473c 23f0 ce3c 9db1 ccbb
00000360: 63cb f0bb bf52 fabc f2de e1ba 4ba8 743d
00000370: 0dca 70bd f48d 533d 6a2c 6fbd febf 9abc
00000380: 740d f63c 480e 85bd 5ac4 bab9 8ac2 773d
00000390: 1b22 2d3d d9bb 903d 4e13 933d 4827 953d
000003a0: 5e53 85bd 7447 2a3d 7066 9f3d 6743 c23c
000003b0: b45d 15bd 43b0 91bd e903 d93c 545d 93bd
000003c0: f251 ad3b 19fc 313b 445a 37bc 5c44 943d
000003d0: 06b9 81bd c29e a5bd 9d0d 61bd f497 4cbc
000003e0: 1288 d0b9 cf37 4dbd 8633 8b3d 8639 cd3c
000003f0: 372a 2b3d d6bd 09bd 602a 7dbd 36d2 763d

sequential/dense_1/MatMul f4 [10, 128]
-0.1851615 0.013264862 0.074175775 -0.08014385 -0.19362023 0.086239584 0.034241896 -0.050791986
-0.16247988 0.1141695 0.026613371 0.18401994 -0.0013715577 -0.14834881 -0.07962185 0.19240226
0.11474946 -0.18763275 -0.100514 0.06120445 -0.017424615 -0.006861204 0.11952602 0.16051218
0.09934875 -0.17301401 -0.12976018 -0.11350443 -0.022068284 0.19039132 0.18857677 -0.21036495
-0.18689673 -0.13929476 -0.10257645 0.13474932 -0.0001202492 -0.019031422 -0.19408591 0.12956917
-0.12843524 -0.028886821 -0.0091023715 0.109890945 0.15286057 -0.19656065 -0.04097639 -0.03224131
0.10130294 0.04657752 -0.0034514666 -0.10051061 0.029207785 0.1944607 0.03588736 -0.1377976
0.0517821 0.19957 -0.13077927 0.1853061 -0.07778758 -0.03980191 0.20257378 -0.068533696
-0.038609304 0.17484826 -0.11510295 0.18062362 -0.08806609 0.077598155 0.04387637 0.06427164
-0.13690695 -0.10517035 0.006157542 -0.15197599 -0.14480211 0.071901776 -0.15508997 0.16247463
0.0008120603 -0.13308316 -0.18728276 -0.18589802 -0.050900318 -0.10683275 -0.17425887 0.066749215
0.02091341 0.16207315 -0.1188942 -0.20883395 0.10828276 0.008905156 -0.20535822 0.10462229
0.03843264 -0.16750816 -0.16512932 -0.036163997 -0.2005993 0.07968055 0.20298807 0.020226931
0.2020101 -0.117686294 0.13766827 0.06162143 0.031888943 -0.076388985 0.13924196 0.17008013
0.05730311 -0.107647255 -0.17473672 -0.1635277 -0.027201997 -0.07219029 -0.17356619 0.17670001
-0.048674017 -0.14257282 0.16765174 0.019884724 -0.1084126 0.047561757 -0.090503946 -0.13813579
-0.074559405 0.08830207 -0.05950218 -0.14845204 0.16596879 0.15817636 0.050262056 -0.0020322849
0.19847862 0.018465718 -0.18457153 -0.16194999 -0.08636064 0.028389664 -0.0445424 0.061149456
-0.022348132 0.06293561 0.077352054 0.039560404 0.17882606 -0.13939719 0.1580265 -0.015155484
0.16719732 0.11043636 0.043122828 -0.13546357 -0.08359373 0.08912073 0.12539317 -0.21320951
-0.05243941 0.07574617 -0.03132238 -0.14998467 0.12874158 -0.11030863 -0.025097687 0.041262064
-0.14856581 -0.12567903 0.16863471 0.18985948 -0.036015376 -0.06484022 -0.16810495 0.056349274
0.1473468 0.067505315 0.0033163577 0.08576397 -0.16942482 -0.19417621 0.05845486 -0.16713062
-0.039841026 0.052099537 -0.18903059 0.15771428 0.0030790155 -0.11095404 -0.04635157 0.010918582
-0.17196271 0.032460123 -0.16983928 -0.17601945 0.1779484 -0.2037087 0.033651054 -0.018001292
-0.19070588 0.18667878 -0.19117337 -0.029644703 0.08623931 -0.19218348 0.13836214 0.06347509
0.027455077 -0.0101189185 0.103199996 0.047211774 -0.010439617 -0.057904966 0.15543513 0.16684322
0.123281755 0.038789537 0.18921131 -0.06696528 -0.13307855 0.040817633 -0.06977064 -0.12055417
-0.07679675 -0.1215396 -0.14987634 -0.0270851 0.032421213 -0.07819969 0.075237185 0.19829662
0.01424464 -0.1452588 0.022902368 0.0058194576 -0.04275624 -0.1804731 -0.025751006 0.052721404
-0.10368718 0.17313793 -0.18645693 -0.18429114 -0.09790225 -0.019943858 0.074026965 0.016646925
0.15922026 -0.16681416 -0.0901755 -0.056026366 -0.10400642 -0.016478533 -0.07388369 0.005306606
00000000: fa9a 3dbe dd54 593c 78e9 973d 7522 a4bd
00000010: 6244 46be 619e b03d 3b41 0c3d 420b 50bd
00000020: 2061 26be b3d1 e93d 4904 da3c b96f 3c3e
00000030: d7c5 b3ba c0e8 17be c810 a3bd 1905 453e
00000040: c401 eb3d cd22 40be 49da cdbd 84b1 7a3d
00000050: 11be 8ebc f3d3 e0bb 0fca f43d 4e5d 243e
00000060: 5c77 cb3d 962a 31be dadf 04be 0375 e8bd
00000070: 8cc8 b4bc f1f5 423e 451a 413e e969 57be
00000080: db61 3fbe 49a3 0ebe 9a13 d2bd bafb 093e
00000090: 4c2e fcb8 c9e7 9bbc 75be 46be c8ad 043e
000000a0: 8784 03be 0ea4 ecbc 1d22 15bc 810e e13d
000000b0: 7b87 1c3e 3247 49be dcd6 27bd 770f 04bd
000000c0: ea77 cf3d 12c8 3e3d 0032 62bb 82d8 cdbd
000000d0: 2a45 ef3c b520 473e a0fe 123d d01a 0dbe
000000e0: 7819 543d 145c 4c3e 00eb 05be e2c0 3d3e
000000f0: 184f 9fbd 5407 23bd 806f 4f3e 655b 8cbd
00000100: ca24 1ebd 6c0b 333e 18bb ebbd 66f5 383e
00000110: ff5b b4bd c8eb 9e3d b5b7 333d d9a0 833d
00000120: 5631 0cbe 8d63 d7bd 35c5 c93b 989f 1bbe
00000130: 0147 14be 3d41 933d e8cf 1ebe c05f 263e
00000140: 72e0 543a f446 08be 0dc7 3fbe 0d5c 3ebe
00000150: da7c 50bd 21cb dabd eb70 32be d0b3 883d
00000160: 9952 ab3c 81f6 253e cd7e f3bd 91d8 55be
00000170: 5ac3 dd3d eee6 113c 6d49 52be 3644 d63d
00000180: 8b6b 1d3d 4287 2bbe a917 29be b320 14bd
00000190: e769 4dbe 8e2f a33d 1bdc 4f3e f3b2 a53c
000001a0: bcdb 4e3e 8305 f1bd e9f8 0c3e c166 7c3d
000001b0: fb9d 023d d471 9cbd 7295 0e3e 7c29 2e3e
000001c0: aab6 6a3d 2a76 dcbd 2fee 32be ce73 27be
000001d0: b9d6 debc 81d8 93bd 56bb 31be d9f0 343e
000001e0: 685e 47bd 9cfe 11be e6ac 2b3e 4ae5 a23c
000001f0: 6d07 debd 1ed0 423d 225a b9bd 7873 0dbe
00000200: 9ab2 98bd b7d7 b43d 8fb8 73bd d003 18be
00000210: b9f3 293e fcf8 213e 96df 4d3d 1530 05bb
00000220: fb3d 4b3e 6b45 973c 5200 3dbe 38d6 25be
00000230: d9dd b0bd 7191 e83c 1772 36bd da77 7a3d
00000240: 6e13 b7bc 63e4 803d c16a 9e3d 170a 223d
00000250: 2e1e 373e 23be 0ebe b3d1 213e b54e 78bc
00000260: c635 2b3e 752c e23d 90a1 303d f6b6 0abe
00000270: 3133 abbd ee84 b63d 1167 003e 9853 5abe
00000280: b5ca 56bd cf20 9b3d e54b 00bd 9595 19be
00000290: d5d4 033e 7ee9 e1bd aa99 cdbc 6902 293d
000002a0: a321 18be 01b2 00be 94ae 2c3e 866a 423e
000002b0: dc84 13bd f3ca 84bd b423 2cbe 7fce 663d
000002c0: 14e2 163e 3a40 8a3d 4057 593b 05a5 af3d
000002d0: b37d 2dbe 21d6 46be 5d6e 6f3d 4a24 2bbe
000002e0: 5830 23bd 5366 553d 3c91 41be da7f 213e
000002f0: 4fc9 493b df3b e3bd 25db 3dbd dae3 323c
00000300: fe16 30be e8f4 043d 59ea 2dbe 713e 34be
00000310: 1b38 363e 0399 50be b0d5 093d 7277 93bc
00000320: 6748 43be b928 3f3e f4c2 43be 73d9 f2bc
00000330: 3c9e b03d bfcb 44be ceae 0d3e 3aff 813d
00000340: 78e9 e03c d2c9 25bc 855a d33d 2261 413d
00000350: ed0a 2bbc c22d 6dbd 632a 1f3e f3d8 2a3e
00000360: 257b fc3d c7e1 1e3d 9cc0 413e 1825 89bd
00000370: be45 08be 6430 273d e9e3 8ebd 1be5 f6bd
00000380: 9d47 9dbd c1e9 f8bd 2f79 19be 92e1 ddbc
00000390: 1bcc 043d 2927 a0bd f415 9a3d 450e 4b3e
000003a0: 5a62 693c b9be 14be bf9d bb3c 26b1 be3b
000003b0: 2b21 2fbd f1cd 38be c6f3 d2bc 66f2 573d
000003c0: f259 d4bd 124b 313e 91ee 3ebe d1b6 3cbe
000003d0: fa80 c8bd 4d61 a3bc 739b 973d 225f 883c
000003e0: a30a 233e 55d1 2abe efad b8bd e77b 65bd
000003f0: 5101 d5bd fdfd 86bc 5550 97bd 0ae3 ad3b
